modelo_mnist.pth (torch, 440593 bytes, 6 tensors)

linear1.weight f4 [128, 784]
0.0052025877 0.01794539 0.0036536083 -0.005597677 -0.0013261065 0.0047101006 0.000351239 0.0097396225
0.016558476 0.0062848516 0.001785446 -0.023349017 0.004601611 -0.022444006 0.019182641 -0.01906294
-0.018416507 0.002869878 -0.03482316 0.030191224 0.033407155 0.026157305 0.025332913 0.015827604
-0.014272355 0.022063375 0.028449263 0.012165137 -0.035416566 0.026067689 0.014640536 0.0008069873
0.016507722 -0.01605998 -0.0083273435 -0.023292935 -0.00021152239 -0.011563581 -0.03208746 0.0034156376
-0.016506195 0.02572046 0.033479854 0.021067047 -0.016752722 0.025803633 0.03158003 -0.024468828
0.0068125236 0.010823988 -0.021325523 0.012827875 0.0061912723 -0.028158138 0.007740915 -0.010493981
0.02825575 -0.03181067 0.009091945 0.008463067 0.029140646 -0.0074165068 0.0130531015 0.00971542
0.011087849 0.0032898788 -0.014607373 0.0005274265 0.029884543 0.0043371283 -0.019952314 0.0094422465
0.008466884 0.011876439 0.005813511 0.009171737 0.0095565 -0.0014631709 0.0062707984 0.03240092
-0.021042215 -0.021633247 0.0025494434 0.035611924 0.004118897 -0.0018503368 0.006338118 -0.027343754
-0.015952107 -0.000120643635 0.015550463 0.017006189 -0.028339958 -0.01308113 -0.0066804495 -0.0154278735
0.0046441625 -0.0013978812 0.0072527444 -0.038947616 -0.01626623 -0.026128685 -0.0028795789 -0.019374717
0.015381358 -0.029732142 -0.010745105 -0.032199 -0.005700821 0.0352828 0.033445466 -0.015012078
-0.03328462 -0.034052055 -0.0006410108 -0.01031889 -0.012377755 -0.031121444 0.010262961 0.031306975
-0.008430508 0.035057962 -0.00269099 0.01035137 0.013279511 -0.02046397 -0.02002321 0.034164425
-0.03190255 -0.02682835 -0.019376598 -0.019244421 0.01541175 0.02082908 0.003610077 0.034457695
0.013688918 -0.0063759806 0.00486465 -0.007993215 -0.0011393689 -0.034419924 -0.015920298 -0.012051045
0.031884868 0.012852795 0.020913443 -0.017477158 -0.016570106 -0.011595151 0.01968765 0.0037509569
0.0071369144 0.012017509 -0.004584043 0.02905396 -0.023367181 0.017631005 0.011883458 0.030107133
0.012982535 -0.010020536 -0.032866545 -0.028352324 -0.028222477 -0.020520857 0.029038154 0.009086822
0.005760934 -0.003521454 0.010656032 -0.021310385 -0.020135725 -0.02622987 0.0033693195 0.028557168
0.030608369 -0.020456595 0.0056753424 0.034204867 -0.014208585 -0.027024329 0.016928224 0.022167264
-0.015368674 0.033756226 -0.015495678 -0.013351245 -0.014283832 -0.019603737 -0.015053794 -0.021593397
-0.0047110883 0.013624251 0.03349382 0.020860584 -0.009595603 0.027851408 -0.006163706 -0.0020160174
-0.009277414 0.01912906 -0.00046782647 0.006230585 0.024420483 0.007445137 -0.015515137 -0.032815598
-0.03513953 0.013917249 -0.041463226 0.01879023 -0.0071260696 0.03558367 0.02943126 0.037089773
0.042246662 -0.004864415 0.027877709 0.01305868 -0.035095558 -0.02222107 -0.0008480688 -0.02592366
0.034291442 -0.024043266 0.017785586 -0.012798521 0.012945034 0.013596139 -0.01523283 0.021776918
0.038035046 -0.02117865 0.018713884 -0.008980093 -0.037295256 -0.039615724 -0.037106723 -0.01045065
-0.008075843 0.019879822 0.020424467 0.014825946 0.043933615 -0.029006751 0.012287212 -0.028470572
-0.003945786 0.0122380145 -0.024882281 0.02669901 -0.0041748313 -0.009240118 0.030332876 -0.027352558
00000000: 787a aa3b 3602 933c 6071 6f3b b86c b7bb
00000010: c0d0 adba 3057 9a3b 8026 b839 f092 1f3c
00000020: a4a5 873c 28f1 cd3b a005 ea3a 7046 bfbc
00000030: 1cc9 963b 7edc b7bc ea24 9d3c e229 9cbc
00000040: 37de 96bc 9014 3c3b bba2 0ebd 9653 f73c
00000050: f1d5 083d d847 d63c f886 cf3c e4a8 813c
00000060: 98d6 69bc 40be b43c 6e0e e93c 4850 473c
00000070: f610 11bd e88b d53c dcde 6f3c 008c 533a
00000080: 343b 873c 3890 83bc 696f 08bc d3d0 bebc
00000090: 1ccc 5db9 2d75 3dbc 246e 03bd e4d8 5f3b
000000a0: 0038 87bc b7b3 d23c 2c22 093d cd94 ac3c
000000b0: 013d 89bc 2462 d33c 105a 013d da72 c8bc
000000c0: 973b df3b 1957 313c ddb2 aebc 022c 523c
000000d0: 28e0 ca3b e5ab e6bc 80a7 fd3b f2ee 2bbc
000000e0: 9a78 e73c e84b 02bd 62f6 143c ada8 0a3c
000000f0: 5db8 ee3c 2b06 f3bb addc 553c 6d2d 1f3c
00000100: cfa9 353c 029b 573b c353 6fbc fe42 0a3a
00000110: 6ed0 f43c 781e 8e3b 0973 a3bc a7b3 1a3c
00000120: afb8 0a3c 6595 423c 447f be3b 0e45 163c
00000130: de92 1c3c dec7 bfba 457b cd3b d4b6 043d
00000140: b960 acbc 3538 b1bc 9014 273b cfdd 113d
00000150: d0f7 863b 0087 f2ba fdaf cf3b 0200 e0bc
00000160: fead 82bc 0f02 fdb8 5fc7 7e3c 9050 8b3c
00000170: 3329 e8bc 3c52 56bc ace7 dabb 31c5 7cbc
00000180: 0f2e 983b 1c39 b7ba 6ea8 ed3b 8987 1fbd
00000190: c240 85bc d30b d6bc 51b7 3cbb bab7 9ebc
000001a0: 1702 7c3c d290 f3bc 3d0c 30bc 19e3 03bd
000001b0: f4cd babb b384 103d 1dfe 083d 38f5 75bc
000001c0: 7455 08bd 2b7a 0bbd 8209 28ba 9010 29bc
000001d0: 11cc 4abc 66f2 febc fa25 283c be3b 003d
000001e0: 1d20 0abc f098 0f3d 525b 30bb cb98 293c
000001f0: 4e92 593c 0ea4 a7bc b707 a4bc ffef 0b3d
00000200: 40ac 02bd 21c7 dbbc acbb 9ebc 7aa6 9dbc
00000210: 9181 7c3c bfa1 aa3c 0b97 6c3b 8323 0d3d
00000220: 7c47 603c 9aed d0bb a467 9f3b f9f5 02bc
00000230: e056 95ba e8fb 0cbd 496b 82bc bf71 45bc
00000240: b599 023d 8894 523c ab52 ab3c 422c 8fbc
00000250: 08be 87bc 97f9 3dbc ff47 a13c 9dd2 753b
00000260: c7dc e93b 16e5 443c bd35 96bb 9202 ee3c
00000270: 886c bfbc e66e 903c d6b2 423c 3ca3 f63c
00000280: b3b4 543c 2d2d 24bc 129f 06bd 2243 e8bc
00000290: d332 e7bc 5b1b a8bc 6ce1 ed3c e5e0 143c
000002a0: 38c6 bc3b 32c8 66bb a396 2e3c 1e93 aebc
000002b0: adf3 a4bc 06e0 d6bc cdcf 5c3b b9f0 e93c
000002c0: 67be fa3c 9794 a7bc 39f8 b93b 671a 0c3d
000002d0: 20cb 68bc 2062 ddbc 0fad 8a3c 1f98 b53c
000002e0: e4cc 7bbc f843 0a3d 96e1 7dbc 2ebf 5abc
000002f0: bc06 6abc 0498 a0bc 30a4 76bc a3e4 b0bc
00000300: 795f 9abb 4038 5f3c d130 093d d1e3 aa3c
00000310: e036 1dbc a328 e43c eaf8 c9bb 291f 04bb
00000320: 4b00 18bc 8cb4 9c3c 9b46 f5b9 ef29 cc3b
00000330: 770d c83c 56f6 f33b 3433 7ebc a669 06bd
00000340: 78ee 0fbd 2c05 643c 58d5 29bd f8ed 993c
00000350: ce81 e9bb 2fc0 113d d319 f13c 72eb 173d
00000360: d60a 2d3d ac65 9fbb cb5f e43c 13f4 553c
00000370: 5cc0 0fbd f608 b6bc ef50 5eba db5d d4bc
00000380: 2f75 0c3d 62f6 c4bc 14b3 913c e3b0 51bc
00000390: 6817 543c 57c2 5e3c 1f93 79bc 8265 b23c
000003a0: a3ca 1b3d d97e adbc dc4d 993c 3d21 13bc
000003b0: e9c2 18bd 1944 22bd 38fd 17bd 3439 2bbc
000003c0: 8a50 04bc 02db a23c 3651 a73c 86e8 723c
000003d0: bcf3 333d 919f edbc 4d50 493c 1e3b e9bc
000003e0: a74b 81bb f481 483c edd5 cbbc e2b7 da3c
000003f0: 06cd 88bb dd63 17bc a77c f83c 7912 e0bc

linear1.bias f4 [128]
-0.01826595 0.011381794 0.016865768 0.029726196 0.031567916 -0.020338908 0.010835588 0.03424804
0.0072357156 0.0019137464 0.0008500579 0.02319545 0.034544747 0.03889235 0.055280454 0.059721418
0.082605556 0.05352915 0.027553478 0.024600677 0.090916984 0.034879405 0.051323056 0.021925144
-0.004676325 -0.034630693 0.03348224 0.0042870212 -0.031233605 0.027006248 -0.0117849875 0.0066686254
-0.039985295 -0.011592845 0.0033245056 -0.003517585 -0.01468342 0.02756392 -0.035955306 0.05929387
0.03821681 -0.014052256 0.02353637 0.03406734 -0.027087433 0.005741063 -0.022591937 0.07950385
0.027093232 -0.02314544 -0.004572962 0.04300203 -0.013709272 0.015180458 -6.711756e-05 0.011028606
0.027260434 0.0746681 -0.03227152 -0.010355349 -0.020497933 0.02003113 0.020756597 0.029081356
0.08959487 -0.020548582 0.063761346 0.05247951 0.030827863 0.06672442 0.0011000391 0.0007561945
0.009026702 -0.0063873515 0.022921585 -0.016164623 0.010499149 0.11321176 -0.05929063 0.037789438
-0.03728976 0.034551915 -0.043041922 0.042278226 0.0014916913 0.08003276 0.012905704 -0.028570486
-0.012228426 0.069839224 -0.0018442069 0.03562973 -0.007892739 0.007891259 -0.005219252 0.03682899
-0.015973004 0.105185926 0.0023754917 -0.07005307 0.055039097 0.04969089 -0.037949923 0.018332493
0.10620811 0.03986812 0.029302722 -0.06299097 0.038953856 0.053620405 0.07383105 -0.030866157
0.052419353 0.058917124 0.06290815 -0.06535089 -0.044244807 0.06236613 -0.0066140415 -0.0012892588
-0.012036385 -0.023526799 0.053496275 0.06839605 0.07932611 0.03764037 -0.004759568 0.09517922
00000000: 79a2 95bc b47a 3a3c 142a 8a3c 5a84 f33c
00000010: 5c4d 013d c89d a6bc c087 313c ac47 0c3d
00000020: 9519 ed3b acd6 fa3a 6cd6 5e3a 6204 be3c
00000030: cb7e 0d3d 964d 1f3d c26d 623d 729e 743d
00000040: 1a2d a93d 6241 5b3d d5b7 e13c 5c87 c93c
00000050: af32 ba3d b5dd 0e3d 2038 523d 5c9c b33c
00000060: db3b 99bb ead8 0dbd ac24 093d 247a 8c3b
00000070: 9edd ffbc 353c dd3c d215 41bc 7c84 da3b
00000080: 9fc7 23bd ebef 3dbc f3df 593b 4987 66bb
00000090: ba92 70bc bbcd e13c df45 13bd 21de 723d
000000a0: 3b89 1c3d 6f3b 66bc 58cf c03c 328a 0b3d
000000b0: 77e6 ddbc 871f bc3b ba12 b9bc ead2 a23d
000000c0: a0f2 dd3c 819b bdbc c9d8 95bb e622 303d
000000d0: db9c 60bc 75b7 783c 77c1 8cb8 54b1 343c
000000e0: 4651 df3c 97eb 983d 242f 04bd 7ba9 29bc
000000f0: 48eb a7bc 5318 a43c bd09 aa3c 063c ee3c
00000100: 847d b73d 8055 a8bc 4f95 823d c1f4 563d
00000110: b78a fc3c d0a6 883d 302f 903a 5b3b 463a
00000120: bbe4 133c fd4c d1bb 0cc6 bb3c ac6b 84bc
00000130: 9f04 2c3c 91db e73d bbda 72bd 19c9 1a3d
00000140: 26bd 18bd 4f86 0d3d ba4c 30bd ef2b 2d3d
00000150: db84 c33a 37e8 a33d 7272 533c a70c eabc
00000160: bc59 48bc de07 8f3d 51b9 f1ba 7bf0 113d
00000170: 8c50 01bc 574a 013c 4206 abbb ffd9 163d
00000180: d1d9 82bc b86b d73d 23ae 1b3b fc77 8fbd
00000190: ad70 613d ad88 4b3d 6171 1bbd 062e 963c
000001a0: a383 d93d c14c 233d 430c f03c 6901 81bd
000001b0: 148e 1f3d 12a1 5b3d bc34 973d 06db fcbc
000001c0: adb5 563d 1553 713d fdd5 803d b0d6 85bd
000001d0: 0b3a 35bd a173 7f3d 9aba d8bb 59fc a8ba
000001e0: 4234 45bc 46bb c0bc e91e 5b3d 3a13 8c3d
000001f0: ba75 a23d ca2c 1a3d 26f6 9bbb 53ed c23d

linear2.weight f4 [64, 128]
-0.07463551 -0.07235831 -0.047071166 -0.057903998 -0.11711628 0.08850193 -0.0008323079 0.08433082
0.08088884 0.09870525 -0.08410189 -0.02702035 -0.04214435 -0.07011757 0.0492403 -0.04697274
-0.02990529 -0.0010722623 -0.03455342 0.05982237 0.044161092 -0.010226233 -0.022857193 -0.056188624
0.13829996 0.106827475 0.05816538 -0.025532149 0.1319145 -0.014540013 0.012200691 -0.029540462
0.06110766 0.08123102 -0.13065988 0.00039841622 0.18014875 0.034425396 -0.06549767 -0.05245206
-0.0071980753 0.06327824 -0.08432614 -0.002593339 0.058511656 0.013985881 0.023536501 0.030793203
-0.009776779 0.029986901 -0.030973323 -0.03819217 0.014617693 0.12214706 0.1088767 -0.08031431
-0.054129325 0.02618351 0.030201307 0.011088766 -0.021635318 0.004442562 0.0635351 -0.04110888
0.009676397 -0.09891666 0.06217862 0.025744418 -0.15899704 -0.051908236 -0.035644304 0.021398112
-0.083040394 -0.08759912 -0.06249477 -0.083711885 0.03962516 -0.08398917 0.15196383 -0.100887544
0.1351651 0.05302206 -0.0793117 0.0571372 -0.051723186 -0.095810525 0.022055954 0.15240808
-0.030207299 -0.07526354 -0.09071459 0.041147877 -0.0061020325 -0.06938529 0.13146259 0.086332746
-0.084676966 0.045766782 -0.068247065 0.0641362 0.057325672 0.077638805 0.059923097 0.17652364
-0.039109785 0.012710927 -0.049854394 -0.028962694 -0.10263205 -0.067331694 -0.035058867 0.039281648
-0.11767033 -0.10028705 -0.10816252 0.14671911 0.069492996 -0.0060644187 0.088275895 0.08683871
0.04381424 0.13478093 -0.0530502 -0.12803738 -0.036730755 0.036457308 -0.082175456 -0.06692813
-0.037995283 -0.07519303 -0.042234387 -0.060584635 0.02024789 -0.014603421 0.0060684932 -0.12172357
0.009526373 0.011344069 0.034878448 0.054507464 0.11927488 0.07029606 0.08797935 0.04738288
0.112073734 -0.049709313 -0.12218194 0.018404577 0.013077705 -0.10479702 -0.11828322 0.029867098
-0.06483266 0.019530691 0.022172607 -0.018305968 0.0076264963 -0.015437809 -0.08821255 0.0473867
-0.020074403 0.050264593 0.078080125 -0.00552032 -0.07136399 0.060845446 0.037271407 0.046590343
0.08742948 -0.035307407 0.02470632 0.08773445 -0.009216882 -0.053327546 0.077002615 -0.048128605
-0.015922597 -0.059315875 0.045517623 0.08383851 0.056445275 -0.10884103 -0.04165196 -0.028004846
0.06570922 0.026380602 0.008055227 -0.10022623 0.026718369 -0.06309706 0.032635175 -0.08680004
0.06834528 0.0135225635 -0.01840888 0.031770434 0.0367548 0.018702738 0.033773173 0.050337434
0.11829375 0.09028447 0.11177753 0.068393044 0.078297324 0.09678064 -0.03328268 0.10901247
0.030065313 0.112470664 0.11693902 0.041036874 -0.022029283 -0.02836828 -0.059654023 -0.12836155
0.007720218 0.067705326 0.099033214 -0.037101746 0.068249635 -0.025403945 -0.1286751 0.08935995
0.04150224 0.044279307 -0.03623416 -0.05424184 -0.05299066 -0.039528478 0.03489137 -0.056711525
0.10984689 -0.029083537 -0.049257513 0.07253062 -0.0023944788 0.054030504 -0.008440095 0.06655768
0.025485173 0.112233765 -0.03226262 -0.031224642 -0.08459182 0.019171307 -0.0043994877 0.0220925
0.07465209 -0.04417141 -0.034390926 -0.05769833 0.0076776096 0.017312285 0.034481406 -0.076551855
00000000: 81da 98bd 9830 94bd b2cd 40bd be2c 6dbd
00000010: a9da efbd 8040 b53d 3d2f 5aba a3b5 ac3d
00000020: 0ca9 a53d fa25 ca3d 9d3d acbd c859 ddbc
00000030: 8e9f 2cbd cd99 8fbd 32b0 493d 7d66 40bd
00000040: f0fb f4bc 278b 8cba e387 0dbd 4d08 753d
00000050: 43e2 343d ee8b 27bc 023f bbbc 0b26 66bd
00000060: 819e 0d3e 5dc8 da3d d23e 6e3d cc28 d1bc
00000070: 9814 073e 3c39 6ebc 68e5 473c d7fe f1bc
00000080: 074c 7a3d 735c a63d b4cb 05be 85e2 d039
00000090: ea78 383e a501 0d3d a423 86bd f9d7 56bd
000000a0: d5dd ebbb 0698 813d 2fb3 acbd 02f5 29bb
000000b0: eba9 6f3d 0925 653c 9fcf c03c 0742 fc3c
000000c0: c92e 20bc 17a7 f53c c4bb fdbc 656f 1cbd
000000d0: 0c7f 6f3c 3d28 fa3d bffa de3d d47b a4bd
000000e0: b6b6 5dbd cd7e d63c bb68 f73c a8ad 353c
000000f0: 8d3c b1bc e992 913b b11e 823d c961 28bd
00000100: c089 1e3c d194 cabd 02af 7e3d f5e5 d23c
00000110: 1fd0 22be bb9d 54bd c3ff 11bd 184b af3c
00000120: 1511 aabd 2b67 b3bd 84fa 7fbd 2371 abbd
00000130: fe4d 223d 8402 acbd 689c 1b3e 219e cebd
00000140: b868 0a3e a92d 593d 2c6e a2bd b208 6a3d
00000150: b1db 53bd 4f38 c4bd b0ae b43c dd10 1c3e
00000160: 4c75 f7bc c523 9abd 92c8 b9bd ad8a 283d
00000170: 8ff3 c7bb e019 8ebd 219e 063e 39cf b03d
00000180: 1e6b adbd f375 3b3d 1ec5 8bbd d759 833d
00000190: 53ce 6a3d 1801 9f3d ec71 753d 9dc2 343e
000001a0: 9531 20bd 7e41 503c 1f34 4cbd 2c43 edbc
000001b0: c130 d2bd 33e5 89bd e399 0fbd cbe5 203d
000001c0: 24fd f0bd 4c63 cdbd 5084 ddbd 893d 163e
000001d0: 5852 8e3d 08b8 c6bb fec9 b43d 7ed8 b13d
000001e0: 8f76 333d 0304 0a3e 2b4b 59bd 3b1c 03be
000001f0: fd72 16bd 4254 153d 9b4b a8bd 9e11 89bd
00000200: f1a0 1bbd cefe 99bd f7fd 2cbd 9827 78bd
00000210: e7de a53c 3043 6fbc 36da c63b 354a f9bd
00000220: 8114 1c3c 79dc 393c b4dc 0e3d 3843 5f3d
00000230: 6346 f43d 61f7 8f3d 842e b43d 8d14 423d
00000240: ea86 e53d fe9b 4bbd 863a fabd 32c5 963c
00000250: df43 563c d29f d6bd 793e f2bd d8ab f43c
00000260: fcc6 84bd d4fe 9f3c 54a3 b53c 66f6 95bc
00000270: b0e7 f93b ddee 7cbc c8a8 b4bd 8e18 423d
00000280: 1373 a4bc 3fe2 4d3d 79e8 9f3d cde3 b4bb
00000290: 4927 92bd 1339 793d e7a9 183d 84d5 3e3d
000002a0: 3a0e b33d 809e 10bd e964 ca3c 1fae b33d
000002b0: 6802 17bc fc6d 5abd 8cb3 9d3d 8022 45bd
000002c0: 1b70 82bc 34f5 72bd b070 3a3d 86b3 ab3d
000002d0: 2933 673d 0ce8 debd 3f9b 2abd 6b6a e5bc
000002e0: 8e92 863d 221c d83c 12fa 033c 6943 cdbd
000002f0: 7be0 da3c 0839 81bd 76ac 053d 38c4 b1bd
00000300: 9cf8 8b3d be8d 5d3c 38ce 96bc b721 023d
00000310: 338c 163d 7c36 993c bd55 0a3d a02e 4e3d
00000320: fe43 f23d 10e7 b83d 9eeb e43d a711 8c3d
00000330: 595a a03d ee34 c63d 6b53 08bd ee41 df3d
00000340: 884b f63c 0557 e63d ba7d ef3d 4816 283d
00000350: c176 b4bc 9864 e8bc c757 74bd 3671 03be
00000360: e2f9 fc3b 17a9 8a3d edd1 ca3d 00f8 17bd
00000370: 77c6 8b3d ef1b d0bc 68c3 03be 5902 b73d
00000380: 41fe 293d 385e 353d 456a 14bd b12c 5ebd
00000390: bc0c 59bd 9de8 21bd 41ea 0e3d 584a 68bd
000003a0: 68f7 e03d 9940 eebc 3fc2 49bd ef8a 943d
000003b0: b0ec 1cbb 174f 5d3d 5348 0abc 654f 883d
000003c0: 48c6 d03c d1da e53d cf25 04bd d2ca ffbc
000003d0: 7a3e adbd 250d 9d3c 9429 90bb 55fb b43c
000003e0: 32e3 983d 15ed 34bd 80dd 0cbd 1655 6cbd
000003f0: 7594 fb3b 7ed2 8d3c 603c 0d3d 38c7 9cbd

linear2.bias f4 [64]
-0.019919125 0.018560363 0.11036965 0.05140468 -0.044272173 0.030635022 0.0055499435 -0.038676996
-0.03871603 -0.07059809 -0.043903176 0.07476096 -0.035421353 -0.044655763 -0.08606461 -0.09782414
-0.022656215 -0.028051157 0.16980463 -0.024970824 0.02098228 -0.07446947 0.06858785 -0.05365123
0.07789079 0.02428231 0.0851635 -0.078029074 -0.055282556 0.039843824 0.1813179 0.0002845721
-0.083626635 0.084704824 0.013525086 -0.0023900222 0.09472781 -0.06327795 0.15350762 0.05683869
-0.02788393 -0.0033943322 -0.0048802933 0.02880224 0.16830799 0.058292564 -0.015903745 -0.008960256
0.028180365 -0.0666826 0.12593015 0.24831939 0.1475415 -0.14007032 -0.103703335 -0.007396644
0.048108634 0.044811193 0.10813299 -0.080356255 0.06934299 -0.057969198 -0.060252164 0.12342974
00000000: 6f2d a3bc e70b 983c 7c09 e23d b78d 523d
00000010: bd56 35bd 4cf6 fa3c 4ddc b53b c56b 1ebd
00000020: b394 1ebd bb95 90bd d1d3 33bd 461c 993d
00000030: fb15 11bd f6e8 36bd a442 b0bd 0658 c8bd
00000040: 8799 b9bc 8acb e5bc 44e1 2d3e 9d8f ccbc
00000050: 08e3 ab3c 7383 98bd c977 8c3d 64c1 5bbd
00000060: 3585 9f3d b2eb c63c 336a ae3d b5cd 9fbd
00000070: f66f 62bd 4733 233d 66ab 393e 9f32 9539
00000080: 7144 abbd b979 ad3d 5398 5d3c eba1 1cbb
00000090: a700 c23d df97 81bd 1a31 1d3e b0cf 683d
000000a0: d76c e4bc 7273 5ebb deea 9fbb adf2 eb3c
000000b0: ee58 2c3e 2fc4 6e3d 9248 82bc 0ace 12bc
000000c0: 82da e63c e390 88bd d5f3 003e 7047 7e3e
000000d0: 1e15 173e 986e 0fbe 6a62 d4bd 8c5f f2bb
000000e0: 8f0d 453d f18b 373d d474 dd3d d291 a4bd
000000f0: b303 8e3d 1c71 6dbd f9ca 76bd bbc8 fc3d

linear3.weight f4 [10, 64]
0.17718713 -0.122993484 0.08573151 0.13777721 0.07440369 -0.07724771 0.025334163 -0.09835348
-0.22579569 -0.102017075 0.00025219563 0.17647159 -0.24159382 0.5520506 -0.08105055 0.022872962
0.0833829 -0.06493848 -0.49327904 -0.11768396 -0.22963312 -0.069796674 -0.0564276 0.006896235
-0.04424373 0.1472268 0.07842128 0.028152995 0.110305384 0.055930626 0.07924956 -0.044301994
0.11729882 -0.29796773 0.3980036 -0.105107985 -0.19786465 -0.07605478 -0.2320904 -0.012150672
-0.07408135 -0.11595023 0.09220245 0.25554752 -0.1780091 0.5424405 -0.419935 0.009815629
-0.26528764 0.10062894 0.0169874 -0.37262657 0.23215152 0.2366227 0.117080964 0.07205472
-0.2879684 0.19377966 -0.009807323 -0.05641175 -0.11895561 -0.094775915 0.015300503 -0.35572875
-0.18765163 0.23896377 -0.21553352 0.04013518 -0.035439156 0.07552833 -0.026365563 0.042146157
0.34102628 0.027044605 0.17061877 0.0723339 -0.4383819 -0.10865887 -0.013435499 -0.08264648
0.08354872 0.0667165 0.4973701 0.10727197 -0.19785844 0.11934325 0.035215255 0.24145822
0.015431149 -0.08467448 -0.17599057 -0.098749965 0.105019644 -0.116401024 0.11386429 0.2954904
0.058747835 0.107972115 -0.3018657 -0.19540139 0.33499855 0.100610375 0.32781106 0.0017922487
0.02036181 -0.13507584 -0.30348933 -0.25351864 0.1749855 -0.556357 0.35582292 -0.10426659
-0.05875961 0.05977493 -0.21195522 -0.030598434 -0.11964194 -0.33418265 -0.06531791 0.05403434
0.2653 -0.10913969 0.08720805 -0.0873432 0.099482074 -0.45476335 -0.077420585 -0.15345335
0.1877503 0.10351611 0.43038818 0.14764525 -0.04980651 -0.094243 -0.0026252868 0.1687673
0.25352335 0.042017348 -0.16037275 -0.024020847 0.15991428 0.009495636 -0.06486039 -0.07023615
-0.14572148 0.05812302 0.19642726 -0.027912622 -0.11860913 0.18799745 -0.079586565 -0.07243879
-0.10454319 0.25069556 -0.19008121 0.01716119 0.021577893 -0.16379657 -0.22219609 0.06915402
0.016514273 -0.26981616 -0.17670196 -0.18630776 -0.28487432 0.030431638 -0.12811509 0.11959713
-0.0943673 0.55460095 -0.10207267 -0.21481752 -0.28717265 0.15221149 -0.2643009 -0.122925915
-0.2967291 -0.04300639 -0.1924625 0.008294264 0.23460113 0.07162392 -0.0381829 -0.011440355
0.59499806 0.06022448 -0.14332473 0.07556532 0.16310734 0.43181056 0.024491085 -0.23969735
0.4633223 -0.28273347 0.116504155 0.008882046 -0.06735953 0.006421937 0.10799196 -0.0774034
-0.33362436 0.06279166 0.051554307 -0.06760795 0.05445365 -0.1004095 0.037793953 -0.11462252
-0.0069416226 -0.023626039 0.0049212365 0.051866893 -0.07174527 -0.05617992 0.1146385 0.050465003
0.34636346 0.06421521 -0.2604473 0.034293823 0.26963937 -0.0060168225 -0.23166257 0.41028824
-0.04271861 0.4358321 -0.16996352 -0.044872098 -0.30140018 -0.120775685 -0.0055157305 -0.04688857
0.116159335 0.40030956 0.34799832 -0.2148414 -0.1772384 -0.45121694 -0.049828265 0.11114104
0.018337399 0.024792267 0.16056314 -0.21328719 0.4014164 -0.31912237 0.037774518 0.005068872
0.056695726 0.09962826 0.26647472 -0.11847166 0.07118112 -0.0657801 -0.0773187 0.2916351
00000000: 8b70 353e 02e4 fbbd 0094 af3d 7815 0d3e
00000010: f660 983d 0c34 9ebd 9789 cf3c 8d6d c9bd
00000020: fc36 67be 54ee d0bd 2039 8439 f8b4 343e
00000030: 5f64 77be 3053 0d3f d5fd a5bd 1460 bb3c
00000040: a7c4 aa3d 77fe 84bd 128f fcbe 4a04 f1bd
00000050: f224 6bbe 8ff1 8ebd a120 67bd d0f9 e13b
00000060: ea38 35bd 9fc2 163e 569b a03d 1ca1 e63c
00000070: cae7 e13d 8317 653d 984d a23d 0276 35bd
00000080: 5d3a f03d 3a8f 98be 21c7 cb3e db42 d7bd
00000090: 089d 4abe 9cc2 9bbd 1ba9 6dbe 9d13 47bc
000000a0: f6b7 97bd 5077 edbd a3d4 bc3d 20d7 823e
000000b0: 0448 36be 61dd 0a3f b801 d7be bbd1 203c
000000c0: c8d3 87be 8c16 ce3d 2929 8b3c e9c8 bebe
000000d0: 21b9 6d3e 394d 723e 25c8 ef3d 6d91 933d
000000e0: 9870 93be 2d6e 463e e5ae 20bc 0210 67bd
000000f0: 009f f3bd e019 c2bd f6ae 7a3c 1422 b6be
00000100: c027 40be ebb2 743e d2b4 5cbe c964 243d
00000110: a628 11bd 99ae 9a3d 98fc d7bc 73a1 2c3d
00000120: ff9a ae3e a68c dd3c b0b6 2e3e cc23 943d
00000130: 9873 e0be 8b88 debd 9120 5cbc 8f42 a9bd
00000140: 971b ab3d a9a2 883d 4ba7 fe3e 68b1 db3d
00000150: 679b 4abe 3c6a f43d df3d 103d d340 773e
00000160: eed2 7c3c d069 adbd df36 34be 6c3d cabd
00000170: 8a14 d73d a963 eebd ae31 e93d 854a 973e
00000180: 92a1 703d 7c20 dd3d 248e 9abe 4d17 48be
00000190: ee84 ab3e d00c ce3d dad6 a73e e3e9 ea3a
000001a0: d0cd a63c 5251 0abe f462 9bbe 32cd 81be
000001b0: 662f 333e 6a6d 0ebf 6c2e b63e b989 d5bd
000001c0: ebad 70bd 8fd6 743d ca0a 59be 91a9 fabc
000001d0: d506 f5bd fd19 abbe 65c5 85bd 1d53 5d3d
000001e0: 67d5 873e a184 dfbd 229a b23d fee0 b2bd
000001f0: 42bd cb3d bed6 e8be af8e 9ebd e022 1dbe
00000200: 9d41 403e 4100 d43d d75b dc3e 5130 173e
00000210: e901 4cbd 7902 c1bd 010d 2cbb 56d1 2c3e
00000220: d0cd 813e 621a 2c3d c138 24be 5ec7 c4bc
00000230: 92c0 233e 9693 1b3c 86d5 84bd f8d7 8fbd
00000240: 0338 15be 6712 6e3d 3a24 493e 03a9 e4bc
00000250: 58e9 f2bd 6782 403e 48fe a2bd ca5a 94bd
00000260: bd1a d6bd 2b5b 803e a6a4 42be a095 8c3c
00000270: 1fc4 b03c 4aba 27be 5f87 63be 9fa0 8d3d
00000280: f148 873c 5825 8abe 5cf1 34be 76c7 3ebe
00000290: 0cdb 91be c54b f93c 9a30 03be 57ef f43d
000002a0: a543 c1bd 54fa 0d3f 7a0b d1bd 20f9 5bbe
000002b0: 4b08 93be 54dd 1b3e 7352 87be 95c0 fbbd
000002c0: e0ec 97be 7827 30bd e414 45be aae4 073c
000002d0: 473b 703e 90af 923d ac65 1cbd 5470 3bbc
000002e0: cb51 183f f2ad 763d b8c3 12be fec1 9a3d
000002f0: 9c05 273e 4616 dd3e 87a1 c83c 3973 75be
00000300: 9538 ed3e 71c2 90be bb99 ee3d 0086 113c
00000310: cbf3 89bd 1d6f d23b e42a dd3d ac85 9ebd
00000320: d0d0 aabe ea98 803d 9c2a 533d 0976 8abd
00000330: ca0a 5f3d 7fa3 cdbd d5cd 1a3d 36bf eabd
00000340: 8d76 e3bb 658b c1bc 5342 a13b 6172 543d
00000350: 2fef 92bd ea1c 66bd 97c7 ea3d 64b4 4e3d
00000360: 8d56 b13e 4483 833d 5959 85be ae77 0c3d
00000370: 2c0e 8a3e c428 c5bb f438 6dbe 4d11 d23e
00000380: b6f9 2ebd 6325 df3e eb0a 2ebe cecb 37bd
00000390: 2051 9abe 3e59 f7bd 4dbd b4bb 3b0e 40bd
000003a0: f2e4 ed3d 60f5 cc3e d62c b23e 62ff 5bbe
000003b0: fc7d 35be e805 e7be b918 4cbd ea9d e33d
000003c0: 5038 963c 2719 cb3c aa6a 243e f567 5abe
000003d0: 7386 cd3e 0264 a3be 74b9 1a3d c818 a63b
000003e0: c739 683d e709 cc3d 606f 883e 45a1 f2bd
000003f0: 68c7 913d b8b7 86bd 4459 9ebd 3251 953e

linear3.bias f4 [10]
-0.13778408 0.22581565 -0.017026784 -0.059330907 -0.087687805 0.1902314 -0.11517417 0.15965296
-0.276491 -0.037373234
00000000: 4517 0dbe 383c 673e c17b 8bbc f704 73bd
00000010: aa95 b3bd 05cc 423e 6fe0 ebbd 117c 233e
00000020: 3a90 8dbe ad14 19bd
